…
3818/3818 [==============================] - 343s 90ms/step - loss: 0.1201 - val_loss: 0.1230
Epoch 18/30
3818/3818 [==============================] - 343s 90ms/step - loss: 0.1197 - val_loss: 0.1231
Epoch 19/30
3818/3818 [==============================] - 344s 90ms/step - loss: 0.1199 - val_loss: 0.1231

Epoch 00019: ReduceLROnPlateau reducing learning rate to 3.000000106112566e-07.
Epoch 00019: early stopping



_________________________________________________________________
Layer (type)                 Output Shape              Param #
=================================================================
cropping2d_1 (Cropping2D)    (None, 90, 320, 3)        0
_________________________________________________________________
lambda_1 (Lambda)            (None, 66, 200, 3)        0
_________________________________________________________________
lambda_2 (Lambda)            (None, 66, 200, 3)        0
_________________________________________________________________
conv2d_1 (Conv2D)            (None, 31, 98, 24)        1824
_________________________________________________________________
batch_normalization_1 (Batch (None, 31, 98, 24)        96
_________________________________________________________________
activation_1 (Activation)    (None, 31, 98, 24)        0
_________________________________________________________________
dropout_1 (Dropout)          (None, 31, 98, 24)        0
_________________________________________________________________
conv2d_2 (Conv2D)            (None, 14, 47, 36)        21636
_________________________________________________________________
batch_normalization_2 (Batch (None, 14, 47, 36)        144
_________________________________________________________________
activation_2 (Activation)    (None, 14, 47, 36)        0
_________________________________________________________________
dropout_2 (Dropout)          (None, 14, 47, 36)        0
_________________________________________________________________
conv2d_3 (Conv2D)            (None, 5, 22, 48)         43248
_________________________________________________________________
batch_normalization_3 (Batch (None, 5, 22, 48)         192
_________________________________________________________________
activation_3 (Activation)    (None, 5, 22, 48)         0
_________________________________________________________________
dropout_3 (Dropout)          (None, 5, 22, 48)         0
_________________________________________________________________
conv2d_4 (Conv2D)            (None, 3, 20, 64)         27712
_________________________________________________________________
batch_normalization_4 (Batch (None, 3, 20, 64)         256
_________________________________________________________________
activation_4 (Activation)    (None, 3, 20, 64)         0
_________________________________________________________________
dropout_4 (Dropout)          (None, 3, 20, 64)         0
_________________________________________________________________
conv2d_5 (Conv2D)            (None, 1, 18, 64)         36928
_________________________________________________________________
batch_normalization_5 (Batch (None, 1, 18, 64)         256
_________________________________________________________________
activation_5 (Activation)    (None, 1, 18, 64)         0
_________________________________________________________________
dropout_5 (Dropout)          (None, 1, 18, 64)         0
_________________________________________________________________
flatten_1 (Flatten)          (None, 1152)              0
_________________________________________________________________
dense_1 (Dense)              (None, 100)               115300
_________________________________________________________________
batch_normalization_6 (Batch (None, 100)               400
_________________________________________________________________
activation_6 (Activation)    (None, 100)               0
_________________________________________________________________
dropout_6 (Dropout)          (None, 100)               0
_________________________________________________________________
dense_2 (Dense)              (None, 50)                5050
_________________________________________________________________
dense_3 (Dense)              (None, 10)                510
_________________________________________________________________
dense_4 (Dense)              (None, 1)                 11
=================================================================
Total params: 253,563
Trainable params: 252,891
Non-trainable params: 672
_________________________________________________________________



Model saved to disk
Saved model weights to disk
Training history saved



svh@svh-inspiron-15-7000:~/Driving-Behavior-Cloning$
